mnist_project/saved_model.pth (torch, 440176 bytes, 6 tensors)

fc1.weight f4 [128, 784]
00000000: 4006 0c3e d2b0 c43d 3068 fb3d f879 c03d
00000010: 30fd 123e ca25 a83d 9cc9 e23d 42e7 bf3d
00000020: 02bf 073e 0a75 e33d 8b19 163e 711b a33d
00000030: e6c6 cc3d ac25 ee3d 802a e33d e82f d53d
00000040: cbfe 023e 6d80 e63d de09 c03d 2a0b f13d
00000050: 860b cb3d 75ab ea3d a52c e33d 1cb2 073e
00000060: eccb ba3d 7bd9 0a3e ea27 c33d b6b4 aa3d
00000070: 04b2 f73d 45fc 013e 8edb b53d 3c3e fa3d
00000080: 9e32 183e 0e61 093e aaa2 d13d dfac 0f3e
00000090: 6f94 ae3d 6eb9 d43d ce70 a43d 2bba 0d3e
000000a0: 842f ce3d b312 b43d 79ad 013e 7310 053e
000000b0: 9be8 e23d 979c a83d 7e05 a03d 040e cb3d
000000c0: ad60 f63d c4f2 a93d a637 e73d 7bc8 003e
000000d0: 5eb9 a93d 4d7e f73d a159 023e adb0 073e
000000e0: 2aa6 a03d 94a2 073e cd96 ce3d 7064 cb3d
000000f0: 6f0d f03d aaa1 123e 89cb 023e 09e3 043e
00000100: b4b8 f63d 9689 f13d b1f3 f23d ad8d ca3d
00000110: 1bb0 ef3d eedf 453d e18c 153d 2538 9d3d
00000120: aa21 d93d 3c71 ba3d 7ac8 f33d a47b be3d
00000130: 4fab 093e 9296 bc3d a35f dd3d 9018 d53d
00000140: d4d4 cf3d ec79 0a3e 97d8 c33d d0f7 e63d
00000150: eb34 e43d 859d 123e c6c5 f13d bf55 e43d
00000160: 83a8 f53d 89b4 e83d 97a3 e93d 6ca4 103e
00000170: 54fd 0a3e 2b3b af3d fb4f de3d c90b 013e
00000180: 9075 733d 65da c63c 1493 243d 22e9 d23d
00000190: 18de d73d f799 d13d 2d29 0e3e b9e4 ed3d
000001a0: 01bd b93d d0a0 b53d fbfb d73d 66a4 da3d
000001b0: 47e9 c93d 6782 123e 3dc6 e73d 6a3f f23d
000001c0: 063f a23d efff e53d 6ae7 0a3e 7aef 093e
000001d0: 0249 c43d be72 143e 244d aa3d 144f ab3d
000001e0: 070e bf3d 8dcb dd3d 7c8d 9e3d d1b9 0c3c
000001f0: b5c0 0cbc 02a5 713d a8e0 fe3d 252a ca3d
00000200: fb38 923d e79c 84bc 7e63 21bc 46c6 8f3d
00000210: c21e 953d fb36 c33d 7f76 9f3d 2d85 0b3e
00000220: fc80 c73d 2528 be3d 9a06 e43d 9a55 ea3d
00000230: bd69 183e 172c 083e 4300 c63d aa5c 023e
00000240: 7c11 023e b5fc d03d 8f6c 8b3d 5a2f ec3d
00000250: 7c14 be3d 1553 bf3d 302c 58bc cfd5 97bd
00000260: db97 aabd bf6b 1fbe 1706 e4bc c938 84bc
00000270: 5a0f 153d bccc 233d 1a88 d43b 3273 cabd
00000280: 7123 1abe 8287 03be 88b9 01bd 3fb2 9f3c
00000290: 4a44 f6bc 5de9 0b3e 3d58 b63d 8c7e 9f3d
000002a0: 0934 e53d 876c a23d e952 ef3d 8b2c fa3d
000002b0: 03ac cd3d d2b5 023d 87ee bf3d f55f ab3d
000002c0: 26de 6a3d 8132 233d 625f 86bc 7d03 bfbc
000002d0: 3fbf 8f3d a73f 493d 6e00 3d3d b57f 323d
000002e0: 2ac6 d73b 55a6 16bd 4dde b73c f894 9abd
000002f0: c125 8dbd d968 febd c163 943b e285 e6bc
00000300: 21b7 b33c 4bc0 023e d471 0f3e b203 003e
00000310: 9730 d73d 51e2 a73d df2d a33d a969 aa3d
00000320: 512e 793d 5197 343d 0d16 953d 0e54 043b
00000330: 9fb2 34bd 0137 2dbb 6d1d 033c eb76 c93c
00000340: 0a7b 223d 4a3e 41bc 9eb6 84bd c71d 96bd
00000350: de2b 84bd ccfb debd 31fa 21be 4024 a7bd
00000360: 6e39 e9bd 6b3b 2cbe 731d 02bd 2c53 28bd
00000370: 9492 013e ed04 c83d 0c21 0b3e fd20 d83d
00000380: 73a5 0c3e 793c 133e a7c7 fe3d d59d c13d
00000390: f92c ee3d 91b4 58bb fc3a d63a 2561 cebc
000003a0: 7605 79bd 660c c6bc 40b5 44bd be9b a83d
000003b0: 9179 afbc 188d dabd 7339 00be 1811 1cbe
000003c0: e6c1 60bd 6ce2 f9bb 279e 3dbc b953 0f3d
000003d0: e495 bebd e091 a8bd b152 5bbe ebc3 f3bc
000003e0: 5556 be3d 1140 fa3d d4e4 043e 65c4 063e
000003f0: 5a2f 103e 8a0e 103e 72a2 073e 6f79 dd3d
0.13674259 0.09604038 0.122757316 0.09398264 0.14354396 0.08210333 0.1107361 0.09370281
0.13256457 0.11106308 0.14658181 0.079642184 0.09998874 0.11628279 0.110920906 0.10409528
0.12792508 0.11254964 0.09376882 0.117697075 0.09914307 0.11458484 0.110925 0.13251537
0.09120926 0.13559525 0.095290974 0.08335249 0.12094501 0.1269389 0.08879767 0.122189015
0.14863059 0.1341593 0.10236104 0.14030789 0.08524405 0.103869304 0.08029328 0.13840549
0.10067657 0.08792629 0.12663831 0.12994556 0.11079522 0.08232992 0.078135476 0.09914783
0.12030158 0.08298257 0.11289911 0.12576477 0.08287309 0.12084637 0.12729503 0.1325099
0.07844193 0.13245612 0.10087357 0.09931266 0.11721312 0.14319482 0.12772955 0.12977232
0.12046948 0.117938206 0.11862887 0.09890304 0.11703511 0.04830926 0.036511306 0.07676724
0.10602124 0.09103629 0.11903472 0.09300926 0.13444255 0.092084065 0.10809257 0.104050756
0.101480156 0.13523072 0.095627956 0.11277735 0.11142906 0.14317901 0.118053004 0.11149167
0.11995032 0.11362559 0.114081554 0.14125222 0.135732 0.08556207 0.10855099 0.12602152
0.05943829 0.02427406 0.040179327 0.10298373 0.10540408 0.102344446 0.13882895 0.11615891
0.09069253 0.08868563 0.10546108 0.10675888 0.09858947 0.14307557 0.11317108 0.118285015
0.07922177 0.11230456 0.1356484 0.1347026 0.09584238 0.14496896 0.08315495 0.08364692
0.093288474 0.1082984 0.0774183 0.008589224 -0.008590867 0.058995254 0.124451935 0.0987132
0.071397744 -0.016188098 -0.009850381 0.070202395 0.07281257 0.09531971 0.07786273 0.13625021
0.09741399 0.09285001 0.11134072 0.114421085 0.14884086 0.13298069 0.09668019 0.12730661
0.12701982 0.1020445 0.06807815 0.11532469 0.09281251 0.093420185 -0.013194129 -0.07413828
-0.083297454 -0.15568446 -0.027834935 -0.016140359 0.036391594 0.03999017 0.006485951 -0.09885253
-0.15052582 -0.12844661 -0.031671077 0.019494174 -0.03006186 0.1366324 0.08903549 0.07787809
0.111915655 0.07930856 0.11685736 0.12215527 0.10042574 0.03191168 0.09371667 0.08367912
0.057340764 0.039843086 -0.016402904 -0.023317093 0.07018899 0.04913297 0.046142988 0.043578822
0.0065849023 -0.03677972 0.022444868 -0.07547945 -0.068919666 -0.12422342 0.004528493 -0.028140012
0.021937909 0.12768666 0.14008266 0.1250141 0.10507315 0.08197463 0.079677336 0.08320934
0.060835186 0.04408962 0.072795965 0.0020191702 -0.04411566 -0.002643049 0.008002621 0.024592837
0.03966812 -0.011794636 -0.06480144 -0.07329898 -0.064536795 -0.1088787 -0.15818097 -0.08161211
-0.11387907 -0.16819541 -0.031766366 -0.041094944 0.12653571 0.097665645 0.13586825 0.10553167
0.13734989 0.14378537 0.124404244 0.09453932 0.116296716 -0.003306661 0.0016344483 -0.025192806
-0.060796224 -0.024175834 -0.048024416 0.082328305 -0.021420272 -0.10671443 -0.12521915 -0.15240896
-0.054872416 -0.0076258685 -0.011573351 0.034991954 -0.09305933 -0.082309484 -0.21418263 -0.029756507
0.0929381 0.12219251 0.12977916 0.13160856 0.14080563 0.14068046 0.13245562 0.10814177

fc1.bias f4 [128]
00000000: 70a2 ddbd 72a6 77be 348b f3bd 5179 fbbd
00000010: 74de f4bd afb2 e3bd d08d 07be b889 13bd
00000020: 8c75 263d 2450 33bd 008b c6bd 00d2 e0bd
00000030: c7cf 11be 9e07 e3bd 7acd c7bd 67ea 5abd
00000040: 5770 97bd de24 25bd be88 d43a 972a eebd
00000050: fdb7 1ebd 20b5 4cbd 0a00 1dbb e358 b8bc
00000060: 45ac 9bbd 290e 4fbd 74b3 d0bc 933f 87bd
00000070: bb4c 07bd a3a6 45bd 4056 9fbd d2cf 58bd
00000080: b5c0 78bd 4f78 01bd 971a 9bbd 18b2 b8bd
00000090: 9cc6 f0bd 8666 09be 3101 8fbd 12d2 f4bc
000000a0: 1bb6 f0bd 6f30 aabd 1a9e 8cbd 83a3 65bd
000000b0: 2850 6abd 666d 67bd f22d 4bbd 1ebb c3bc
000000c0: 42eb a8bd ceb8 80bd e3be 54bd fe21 8fbd
000000d0: 0d8e a9bd 3988 31bd b4f8 04be d876 4ebd
000000e0: d863 74bd 7cf0 0ebe dd38 afbd 396e 86bd
000000f0: e74e febd 34a4 debd 890e 09bd ef67 89bd
00000100: 8ab5 0ebd e68b 85bd 063b f2bd e420 d2bd
00000110: cc8c 58bb 317e abbc 34e0 4abd 41f4 8cbd
00000120: e70d bdbd 7135 a4bd b057 07bd e833 adbd
00000130: 95b0 a4bd 83d5 efbd 002c c7bd 4070 55bc
00000140: d4c7 74bd f0ba f9bd 978c 9cbd 16ae 90bd
00000150: 0f65 0cbe 2864 0dbe 7246 a73c 94d1 b5bd
00000160: aca6 81bd 3d9a 0dbe 4089 e3bc 00fe 803b
00000170: 7d7a dabd 024f 4fbe 37d1 a7bd 0c53 4dbd
00000180: 4545 70be fb7c 6ebd 6c67 b6bd 12e2 14bd
00000190: 4aca dbbc bd29 76be a755 aebd 5a1f 02be
000001a0: 828e bcbd 7580 e2bd 296b 9bbd aabd 48be
000001b0: 7a1a 43bd c5f8 f4bd d2a8 6abd d7cb 53bd
000001c0: d33f f2bc 8459 28bd 146f aabd 3046 683c
000001d0: 9798 b3bd cb01 f3bd 16f9 e6bd deea 85bd
000001e0: 81a2 b5bc 8cd1 e4bd 324f 06bd 932f 34be
000001f0: 85c8 5cbd fc6c 03be 2958 77bd a32d debd
-0.10821998 -0.24184588 -0.11891785 -0.12278999 -0.11956492 -0.111180656 -0.13237691 -0.03602001
0.040639445 -0.0437776 -0.09694481 -0.10977554 -0.14239417 -0.11085437 -0.097559884 -0.0534462
-0.07394474 -0.040318362 0.0016215069 -0.11629217 -0.038749684 -0.04997742 -0.0023956322 -0.022503322
-0.07601217 -0.050550614 -0.025476195 -0.06603923 -0.03303216 -0.04825462 -0.07780123 -0.052932568
-0.060730655 -0.031608876 -0.07573431 -0.09018344 -0.11756632 -0.13418016 -0.06982649 -0.029885326
-0.11753484 -0.08310019 -0.06866093 -0.05606414 -0.05720535 -0.056500815 -0.049604364 -0.023892935
-0.08247997 -0.06285249 -0.051939856 -0.06988905 -0.08279047 -0.043342803 -0.12985498 -0.050406307
-0.05966553 -0.13958925 -0.08555768 -0.06563992 -0.12417393 -0.10871163 -0.033461127 -0.06709277
-0.034841098 -0.06520824 -0.11827664 -0.1026018 -0.0033042906 -0.020934196 -0.049530223 -0.06882525
-0.09231167 -0.08018006 -0.03304261 -0.08457166 -0.08041493 -0.11710646 -0.09725189 -0.013027251
-0.059760883 -0.121938586 -0.07644003 -0.07064454 -0.13710426 -0.13807738 0.020419333 -0.088778645
-0.06330618 -0.13828368 -0.027775407 0.003936529 -0.10667894 -0.20244983 -0.081942014 -0.050128028
-0.23463924 -0.05822466 -0.08906445 -0.03634841 -0.026829857 -0.2403936 -0.08512431 -0.12707272
-0.09206869 -0.110596575 -0.075887986 -0.19603601 -0.047632672 -0.119615115 -0.057289906 -0.05170807
-0.02957145 -0.041100994 -0.08321968 0.01417689 -0.087693386 -0.11865576 -0.11277978 -0.06538938
-0.022172214 -0.111727804 -0.03279037 -0.17596273 -0.053902168 -0.12834543 -0.06038681 -0.10848548

fc2.weight f4 [64, 128]
00000000: 35b1 50bd a0b1 67be 9dc5 37bd 1c7c 2f3e
00000010: 31f9 2dbe cc64 03be 9fe1 893d 4771 f03c
00000020: e911 473c 2c2c 1ebe 12b3 a7be 2e70 93be
00000030: 639a 863d 6262 f6bb 1c98 0e3e dd88 073e
00000040: 555d c2be 2296 fe3d e0c0 a3bc ac7d bd3a
00000050: 6eb8 273c 3292 e2bc 9503 2bbe 4883 74be
00000060: d90e d3be f142 66bd 2ec3 4a3c 09b4 38be
00000070: 780f 1a3d d21d e8bd 8808 ebbe f150 b3bd
00000080: 0046 d63b fbac 553c daa2 493c 6fc6 c33d
00000090: 2a9e 9ebd 4fba dbbc dc8d 26bc 44ef d4bd
000000a0: baaa 9bbd dea6 c13d 4b0a 973d ca2e a2bd
000000b0: 70ed 93bc 53d1 fc3d ef25 4cbe 8303 eabe
000000c0: 281f 96bd d5ca 1c3e 9eaa 49bd 0b9c 12be
000000d0: 02b8 ed3d d002 a0bd 6fa2 143e d536 20bd
000000e0: 0242 003e b39e 9ebd 5289 11bd 5c5b 6fbc
000000f0: 3190 c1bd aa25 79be c01b 83bb 8c93 88bb
00000100: 21a1 e0bd 959f 99bb 48d4 54be 3b3c 88be
00000110: d0d8 31be 50e2 163e 294e ba3d ca69 8cbe
00000120: c9d1 cfbd 176f 91bd 3558 debd 511f f3be
00000130: 195b 94be 6adb b93d 1de1 6bbd e14b aabe
00000140: 93e4 a93b dae8 423c afef 4f3c ba7b 323d
00000150: f696 013d 9243 153d 1daa 293e 3135 43be
00000160: cf41 9a3e 1d7c 36be b8bc 0bbe 1b4c a8bd
00000170: 6579 d1bd 5052 72bc f883 f03c a180 bb3d
00000180: 9fbf 433e d93b 0d3d 570c e7bc fbc7 ecbd
00000190: 1466 edbd c7ed 5a3d 391e 07be 9818 93be
000001a0: c8d8 8e3b c0f1 97be 5fd9 0bbe a954 d9bc
000001b0: bc89 7ebe ff37 2b3e eb61 93bc 8ce2 5abd
000001c0: 0708 f33d dd59 98bd f1e6 f3bd 79d7 0f3e
000001d0: 47cb 3a3e 6c65 8d3e dd7d 93bc 349a 8dbd
000001e0: d4b4 6abe 8e68 e2bc 171e 0cbd ab51 243e
000001f0: c513 183c ccc7 38be eb9b f6bd 199f 3cbe
00000200: bddf 2f3e 74af 1b3d 2300 853d b8bb 19be
00000210: e426 8bbd 0015 123d 83e5 92bd 6a89 bd3c
00000220: 4433 3b3d ba98 01be d877 11be 7ada a8bd
00000230: 3757 5abd 8df5 84be 99ad 94be 85ed 0bbe
00000240: 0f66 1fbe b298 56bc 2029 1cbe 64c2 af3e
00000250: 87d2 88bd 2fac a8bc 9639 3e3d a498 4abe
00000260: 5505 85be 6f97 cfbc 9e95 f4bd 7093 dcbd
00000270: 1303 b0bd a20a 5a3d d066 453c 4b39 063e
00000280: 0778 abbd 861c 473d 0e33 463d f30a 85bd
00000290: 68a9 8abd 0c34 6fbd 97e5 99be 43f5 0bbe
000002a0: 21b2 5bbe 72f5 17be 5f4c 9a3b 9783 853d
000002b0: 4ccc 04be f0c2 32be 2193 a8be 2683 5cbe
000002c0: f375 ed3d cad5 c23d 2cdd 88bd c20b 9b3c
000002d0: cd38 9ebd d148 11bc c129 2d3c a3b6 0c3d
000002e0: 01c3 02bf 96e3 7ebd 8787 243d 5f33 b1bd
000002f0: 6138 393e 2246 87be b3af dbbd 436c a33c
00000300: e64d 34bb 6d1d 853b c51c 733b 9eb1 373e
00000310: e49f 9e39 dddd d9bd 3188 2cbe 4e45 37be
00000320: ef6d 56bd 06f2 613d 6faf 91bd 17d2 a4bd
00000330: 1de2 6dbe 77c7 8bbc b40c 633d 6d99 1cbc
00000340: 7081 413d 9d1e 75bc 7e1b 113e 65a2 ce3c
00000350: 89e6 b2bc 429e b23c 7aa4 3f3e 137a 863d
00000360: 36fe 05be 1a4e 1d3e f3bf 333c 051f c3bd
00000370: 6db1 153d 0805 5dba 06f5 46be 73fc 25bd
00000380: 1977 a9bd fb12 6f3d 05c3 b03d 86e6 cb3c
00000390: 7c61 5abc 6921 4c3e f1a0 953b 9beb 8abc
000003a0: 480e 08be d316 a7bb bdfc 3d3d cc72 91bd
000003b0: 4558 19bd be12 88bd eeea d9bd b105 f53d
000003c0: 1eb1 6c3b 4034 38bd 2026 dfbd f532 03be
000003d0: 9a1e c1bd f376 9abd 9dcb c83d a9a4 bd3c
000003e0: 8cb7 82bd 8eae ccbd 3083 20bc 45b5 243c
000003f0: 3792 9e3d f6f8 1fbe 4833 5abe 166d 82be
-0.050950248 -0.22626352 -0.044866193 0.17137188 -0.1698959 -0.1283142 0.06732487 0.02935089
0.012150266 -0.15446538 -0.32753807 -0.28796524 0.06572416 -0.0075190524 0.13925213 0.13235803
-0.37961832 0.12430979 -0.01998943 0.0014457009 0.010236843 -0.027657602 -0.16700585 -0.23878205
-0.41222265 -0.056216184 0.012375636 -0.18037428 0.03761241 -0.11333813 -0.45904946 -0.08755673
0.0065391064 0.01304173 0.012306893 0.095593326 -0.07745011 -0.026822237 -0.010165658 -0.10397199
-0.07600923 0.094556555 0.0737501 -0.079190806 -0.018057555 0.12344613 -0.19936346 -0.45705804
-0.07330161 0.1531175 -0.04923498 -0.14317338 0.11607362 -0.078130364 0.14515088 -0.039114792
0.1252518 -0.07745113 -0.03553135 -0.014609184 -0.094513305 -0.24330774 -0.004001111 -0.0041679796
-0.10968233 -0.004688213 -0.20784104 -0.26608452 -0.17367864 0.14734769 0.09096939 -0.2742446
-0.10147435 -0.07101267 -0.10856668 -0.4748483 -0.28975752 0.09075053 -0.05758773 -0.33261016
0.005184719 0.011896336 0.012691422 0.043575026 0.03163811 0.036441393 0.165688 -0.1906326
0.30128333 -0.17820783 -0.13646209 -0.08217641 -0.10228232 -0.014790133 0.029359803 0.091553934
0.19116066 0.034480903 -0.028204126 -0.11561581 -0.115917355 0.05344942 -0.13195123 -0.287297
0.0043593384 -0.29676628 -0.13657139 -0.026529627 -0.24857229 0.1672058 -0.017991027 -0.05343871
0.118667655 -0.07439015 -0.11909283 0.1404704 0.18241607 0.2761644 -0.018004352 -0.069141775
-0.22920543 -0.027637746 -0.034208383 0.16046779 0.009282057 -0.18044966 -0.12041458 -0.18420066
0.17175193 0.038009122 0.06494167 -0.15013015 -0.06794527 0.03566456 -0.07172682 0.023136813
0.045703188 -0.12655917 -0.14205873 -0.08244796 -0.05330583 -0.2596859 -0.29038695 -0.13664825
-0.15566276 -0.013097929 -0.15250063 0.34327996 -0.0668078 -0.020589916 0.046441637 -0.1978479
-0.2598063 -0.025340764 -0.119426 -0.10770309 -0.08594336 0.053232796 0.012048438 0.13107793
-0.08372503 0.048611186 0.048388533 -0.06496229 -0.06770593 -0.058399245 -0.30057976 -0.13667779
-0.2145467 -0.14839724 0.004708811 0.065192394 -0.12968558 -0.17457175 -0.3292475 -0.21534404
0.11594763 0.09513433 -0.0668281 0.018926505 -0.07725678 -0.008867458 0.010569037 0.034353863
-0.510788 -0.06222876 0.04016831 -0.086523764 0.18087913 -0.26420695 -0.10726871 0.019949084
-0.0027512251 0.0040623457 0.0037096005 0.1793885 0.00030255236 -0.1063802 -0.16848828 -0.17897531
-0.052350935 0.055162452 -0.071135394 -0.08047884 -0.23230787 -0.017062886 0.055432037 -0.009558064
0.04724258 -0.014960912 0.14170644 0.02522392 -0.021838443 0.021803979 0.18715087 0.065662526
-0.13085255 0.15361825 0.010971057 -0.09527401 0.03654616 -0.00084312307 -0.19429407 -0.040523957
-0.08274669 0.05836771 0.08630947 0.024890196 -0.013328906 0.1993462 0.004566305 -0.016958049
-0.13286698 -0.0050991564 0.046383608 -0.07101974 -0.037437696 -0.066442 -0.106405124 0.11963976
0.0036116312 -0.044971704 -0.10895944 -0.12812407 -0.09429665 -0.07542219 0.09804461 0.023149805
-0.06382665 -0.09994231 -0.009796903 0.010052984 0.07742732 -0.15622315 -0.21308625 -0.2547385

fc2.bias f4 [64]
00000000: d58d 4abe 15e9 68bd 2909 c0be c852 f83b
00000010: c2b1 7e3d 99ea 093e cd41 a73d 7ee3 923e
00000020: 1222 be3e 8021 9bbe d83a 04be 336f 35be
00000030: 489e c7be 8bbf b1bd 6104 4abd f04b 9dbc
00000040: b4a9 a33e 8c1b d4bd 0733 2ebe 323c cabe
00000050: 22a8 a4be 572b 5cbe fe03 42be 74de 95be
00000060: 72fe e0be d7c4 2dbe cdbc 59bb 6aa8 0dbe
00000070: 714f 11be 7fb2 67be 2294 18bd 9ab2 7ebe
00000080: bd58 93be ae79 00be 4f8a 8bbe b452 423e
00000090: 7af8 bfbd d173 5cbe 1446 c4bd 5a73 02be
000000a0: 21de afbd b334 b13d 7d3c a4bd 5630 0c3e
000000b0: b423 4f39 73e8 3ebe 4328 b4be 8ef9 9f3e
000000c0: 004e 14bd 807d 75be 3b33 eebd 87db 9f3c
000000d0: 2560 73bd 2c7c 47be 3fbb 853d 8279 8cbd
000000e0: b4c1 55be b622 15bf 6c65 cdbd 06c0 3ebe
000000f0: 5b5e 03be 089a d83d 9a4c 083e ee53 c1be
-0.19780667 -0.05686291 -0.3750699 0.0075782277 0.06218124 0.13468398 0.081668474 0.28689188
0.3713537 -0.30298996 -0.12913072 -0.177182 -0.38987947 -0.08679112 -0.049320582 -0.019201249
0.3196541 -0.10356817 -0.17011653 -0.3949905 -0.32159525 -0.21500908 -0.18946835 -0.2927128
-0.43944126 -0.1696962 -0.0033224106 -0.13833776 -0.1419046 -0.22626685 -0.037250645 -0.24872819
-0.2877864 -0.12546417 -0.2725396 0.18976861 -0.09373565 -0.21528555 -0.09583679 -0.12739316
-0.085872896 0.0865263 -0.0801935 0.13690314 0.00019754359 -0.1864336 -0.35186967 0.31245083
-0.0362072 -0.23973656 -0.11630865 0.019513858 -0.059417862 -0.19480962 0.06529855 -0.06859113
-0.20874673 -0.5825609 -0.1002911 -0.18627939 -0.12828963 0.10576254 0.13310471 -0.37759346

output.weight f4 [10, 64]
00000000: bb13 2bbc 792a b43d a1a8 303c 9557 c6bd
00000010: 755d 843d a870 28bd de8a be3d 3693 bebd
00000020: ef7a 963d ed45 bdbc 0372 57be 6d57 c3bd
00000030: 1853 57be 1bf4 21be 0cab 51bd 9d9f 4ebe
00000040: 186c ccbd 1853 e7bd ef9d 7abe 5ea8 2ebe
00000050: 2385 35bd 17fd ab3d 0961 babc bb61 95bd
00000060: b41a 20be f484 cbbd 65d3 5f3d 5e92 6b3b
00000070: a630 1f3e 803e 813d 13a8 483d d486 1f3e
00000080: 5d3a cebe bc21 f2bc e49e 163d ad54 36be
00000090: 5727 a23d c20f c0bc c3f7 843d d4a2 6f3d
000000a0: 3cce 153d 53fd 90bd 092c 0f3e 4045 4a3e
000000b0: 730d 0d3e bb57 c8be 58b7 b7bd 547c 0ebe
000000c0: 5771 3cbe 4a11 93be 436c 04be 2d5b 67be
000000d0: 3f89 82bc 1bdd bebd 26a6 323c 6179 8d3d
000000e0: 637f 063e e98e 6dbb a55a 8dbe c89b b13d
000000f0: 1ee2 05be 65d3 c93d 210d 35be dc79 39b9
00000100: 78aa 30bd 1a19 b9bb 5405 8f3d 2cb4 65bd
00000110: ac9e 53be d02d 893d f54e d13d 02c8 813d
00000120: d57e aebd 3f62 1bbd e87a dfbd 2043 26be
00000130: ae8a 88be 26ee 47bd 9fee 39be c52a 5d3c
00000140: 17d1 24be 8ffb 51be 81bd 9e3b 6c04 38be
00000150: 91ad 27be 28a8 e33d 7380 ee3d 4530 cc3d
00000160: b16c 053e 6b71 a33c ad46 a3bb 7361 133d
00000170: 6fcf 30be 83e0 1a3d b25f 2d3d 9f90 1bbe
00000180: e55e 9dbe 2adb 5abe fc6c a23d 8451 9a3c
00000190: 17ee 0dbd 082d 923d 27e9 8e3c 3518 0fbe
000001a0: ac84 22bd f8f9 53be 2d7b 06be 16a0 96be
000001b0: de81 ecbd da12 2a3d e15b 1c3e 3c4a 883c
000001c0: 80e6 923d 6611 0fbe 8355 e7bd 846b 07bd
000001d0: 701d 22bd 1c84 2b3e dc22 03bf 0f9e f93d
000001e0: c253 2abe ed16 803e f887 7cbe 3fc8 2cbe
000001f0: 23be 573e 042e d4bd ce24 be3d 09ca 223e
00000200: df19 dc3d 54f9 adbd 3746 4bbe 5898 24be
00000210: 35e5 223c 8003 2e3e 6c90 9d3d d214 7bbd
00000220: 52ab 05be f864 b23b 0eac 193e 237d 9d3c
00000230: 6f26 34be 9379 423d 8a28 3e3d c85e 45bd
00000240: 3874 d53c bbbf b13c 72a1 1ebd 879d e4bb
00000250: 48e5 17be c85e 9abd bcc9 173e 79e1 c43d
00000260: e3d0 91be c98e 533e 8206 643d 6153 fbbd
00000270: 29da 1abe 2f59 93bd a914 68bd e505 aa3d
00000280: 633e 95be 6059 a43d 21bd c53d 1b35 a4be
00000290: cc93 233d 5bad fb3c 34ed c53d 1cf9 e1bc
000002a0: a464 24be 5c35 debd a6e7 523d 9de7 ca3d
000002b0: 4df6 d43d 281f 44be 0708 e2bd 50e6 4fbe
000002c0: af15 cabd db85 e63d 77f4 a73d 1cbf a4bb
000002d0: 60a0 9ebc 2cc4 ff3d 745e 173e 83c7 a9be
000002e0: 94db fbbd ac6e bb3d d23e 7abe 04fa 863d
000002f0: 1bdf e3bd 77ef 18bc b90c aabd 806a 813d
00000300: 721a d53c fbe7 89bd d50e 21be 42a8 04be
00000310: efe5 83bd 6194 8abc da97 60bc 0c51 213e
00000320: b40b f2bd 783b 2cbe 80eb 353e 8b8f 0c3e
00000330: a5ef a7be 8687 69bd 1619 64bd 2cb9 2b3d
00000340: 8bff 0b3e 40ef 353e e5f3 2a3d c57c 0cbe
00000350: 61d1 f43a b7ff 05be 8237 293e 1a37 a13d
00000360: 917b c23d 7e27 543d 6346 c3bd 5186 42be
00000370: fa15 10be 2954 2b3e ba52 263d 95dc 4cbd
00000380: 6ea8 edbd 1b64 a5bd 9d73 d43d 1f77 de3d
00000390: 3e88 48bd 4848 373e 0244 033a 19d9 df3d
000003a0: c660 48be 9ca6 d5bd b74f 6a3c f844 50bc
000003b0: 2ec9 093d 39d8 083e 1370 71be f2d2 04bd
000003c0: a725 f4bc 2e85 53be 0aba 093e 23dd 5bbe
000003d0: 51df ac3b 1447 3d3e e4c6 4cbe ad81 bdbc
000003e0: 46b3 88bd 638d 9bbd aae2 763d dc5a 06bd
000003f0: 241a 43be 96c1 c53d 8da1 9dbd dee7 2f3d
-0.010441716 0.087971635 0.010782392 -0.09684674 0.06463138 -0.041123062 0.093038306 -0.09305422
0.073476665 -0.023104632 -0.21039586 -0.095381595 -0.21027792 -0.15815775 -0.051188514 -0.20178075
-0.09981555 -0.11295146 -0.2447431 -0.17056414 -0.044316422 0.083978824 -0.022751348 -0.07294031
-0.15635186 -0.09937468 0.05464496 0.0035945396 0.15545902 0.06310749 0.048988413 0.15578777
-0.40278903 -0.029557101 0.036772624 -0.17805739 0.0791766 -0.023445014 0.06492569 0.058504894
0.036573634 -0.07079568 0.13981642 0.1975298 0.13774662 -0.39129433 -0.08970517 -0.13914615
-0.1840261 -0.28724128 -0.12931924 -0.22593375 -0.015934585 -0.09319516 0.010903871 0.06907917
0.13134532 -0.0036248511 -0.2760822 0.08672291 -0.13074538 0.098547734 -0.1768079 -0.00017688371
-0.04313132 -0.0056487443 0.06983438 -0.05608003 -0.20665997 0.06698191 0.10220138 0.063369766
-0.08520285 -0.03793549 -0.109121144 -0.16236544 -0.26668304 -0.0488111 -0.18157433 0.013498967
-0.16095386 -0.20506118 0.004844368 -0.17970437 -0.16374804 0.11116058 0.116455935 0.09970144
0.13029744 0.019951543 -0.0049827904 0.035981607 -0.1726663 0.037811767 0.04232759 -0.15191887
-0.3073646 -0.21372667 0.07930943 0.018837698 -0.03465089 0.07137495 0.01744516 -0.13974078
-0.039677307 -0.20700824 -0.13132925 -0.2941901 -0.11548208 0.041521885 0.15269424 0.01663696
0.07172871 -0.1397148 -0.11295607 -0.03306152 -0.039578855 0.16749614 -0.51225066 0.121883504
-0.16633514 0.2501749 -0.24661243 -0.16873263 0.21068625 -0.10360339 0.09284364 0.15897383
0.10747122 -0.08494821 -0.19851004 -0.1607374 0.0099423425 0.16993523 0.07693562 -0.061299153
-0.13053635 0.0054441653 0.1500704 0.019224709 -0.17592786 0.047479223 0.04642538 -0.048186094
0.026056394 0.02169787 -0.038728185 -0.0069767865 -0.14833558 -0.07537609 0.1482305 0.09613318
-0.2847968 0.20659937 0.05567027 -0.12271763 -0.15122284 -0.07194745 -0.056660328 0.083019055
-0.2914916 0.080248594 0.09655214 -0.32071766 0.039935872 0.03072231 0.096643835 -0.027584605
-0.16054016 -0.10850021 0.05149045 0.09907458 0.10398541 -0.1915251 -0.11036687 -0.20302701
-0.09867417 0.11256 0.08200925 -0.005027665 -0.019363582 0.12488589 0.14782125 -0.33160028
-0.122977406 0.09151968 -0.24438027 0.065906554 -0.11126538 -0.009334437 -0.08303208 0.063191414
0.026013587 -0.067337 -0.15728314 -0.1295481 -0.06440341 -0.016916456 -0.013708079 0.15753573
-0.118186384 -0.1681956 0.17765617 0.13726632 -0.32800022 -0.05701401 -0.055687986 0.04192464
0.136717 0.17767048 0.041736502 -0.13719471 0.0018678122 -0.13085829 0.16525081 0.07871838
0.09496225 0.051795475 -0.095349096 -0.1899655 -0.14070883 0.16731323 0.040606238 -0.05001505
-0.11604391 -0.08075734 0.10373614 0.10862564 -0.048958056 0.17898667 0.00050073874 0.1093008
-0.19568166 -0.10432169 0.014301232 -0.012711756 0.033639126 0.13363732 -0.23577909 -0.032427736
-0.02980311 -0.20656273 0.13449875 -0.21471076 0.005275645 0.18484145 -0.19997746 -0.023133123
-0.06674819 -0.07595327 0.060274757 -0.032801494 -0.1905294 0.09656064 -0.07696829 0.042945735

output.bias f4 [10]
00000000: 8486 2bbd b139 bebe 43a0 5cbd 4848 23be
00000010: d2b7 c3bd a80f d2bd c160 90bd ac04 eabd
00000020: 966c 2b3f 588f 163e
-0.04187633 -0.3715339 -0.053863775 -0.15945542 -0.09556545 -0.102568924 -0.07049704 -0.11426672
0.66962564 0.14703119
